finished_model.pt (torch, 396955 bytes, 10 tensors)

conv1.weight f4 [3, 1, 3, 3]
00000000: eda8 843e 8550 973c 44b0 893e b635 9c3e
00000010: dd70 06be 401a 963d 76be a63e 28f6 80be
00000020: 6c1e 11be ff1a 013f 1de5 503f f521 16bd
00000030: 9c12 493f d7ba 863f 035c 323f 7040 b23e
00000040: 0c61 bb3e a8bb bc3e 5baf c43d f4d6 06bd
00000050: 68fb 983d bbd3 743d 411b 153f 3977 373f
00000060: ce2f 3c3f c3b7 833f 7fda 8b3f
0.2591013 0.018471012 0.26892292 0.30509728 -0.13128991 0.073292255 0.32567185 -0.25187802
-0.14171761 0.5043182 0.815996 -0.036653478 0.7854402 1.0525769 0.6967165 0.34814787
0.36597478 0.3686192 0.09603759 -0.03291984 0.07469827 0.059772234 0.5824471 0.71666294
0.73510444 1.0290455 1.0926055

conv1.bias f4 [3]
00000000: f5a8 0abd 8a56 afbc 33ea b1bd
-0.033852536 -0.02140357 -0.08687248

conv2.weight f4 [6, 3, 3, 3]
00000000: 6bce 1cbd a291 bf3d cea3 173e c2c2 88bd
00000010: e208 663e 9e2b cdbd 4679 bcbd 8e01 4d3d
00000020: 9bac 2cbe 69a2 38bd aece 4f3e ef8e c6be
00000030: 9521 073e c1ea a03e 715a 19bd 8127 11be
00000040: a02a 473d d202 9c3d 40f9 8f3e 054b a03d
00000050: a7d7 4ebe 255d 993e dd36 223e 81b8 ddbd
00000060: 7eab 88bd 6eae 69be e2d4 c4bc bffc 46be
00000070: 05a1 bd3d c31f a83d e315 453e 3360 4e3e
00000080: 5fe2 f6ba 6cd3 053e eefe 11be 2443 52be
00000090: a669 863e 0fa4 923e 3359 313d 2c16 833e
000000a0: 3c7a b73e 6a78 e23e 5a7f 9cbe 52af 0ebf
000000b0: da50 03bf f4f4 833e d3c1 e73e bc13 f63e
000000c0: ec7f 833e 1f67 f0bd d049 363e 3d94 34bf
000000d0: 61cf 38bf 8cc6 53be b990 313e ee52 59bd
000000e0: 93fc 9fbc a260 fe3d 3025 12be f342 4c3d
000000f0: 6677 63bc 1d42 ad3c bc8e 243e 149c 63be
00000100: fe4d 89bd a05f 683e 236a 75be 4432 92be
00000110: ac72 e83e 5893 8dbe 280b 4b3e fcd5 c13e
00000120: e080 8abe bb0a 91be ce34 4b3e 4be2 fcbd
00000130: 0579 083c ae41 ae3e df1a c9bd d862 183e
00000140: 7b3e 013e 85d1 d23d cf00 263d 479d 66bd
00000150: ef27 883d eab2 f2bd 2e9c e8bd d208 813d
00000160: 2079 143e 6546 2e3e 2559 833b e3d6 423e
00000170: ba08 8abe a088 57bd 2641 ad3c 448a 813e
00000180: e649 b5be ecd0 963d 835f bc3e efe9 94bc
00000190: 031d de3c 1e62 71bd 9b61 3ebe 3438 743e
000001a0: 5cea c03e f157 a6be 5397 4c3e 1536 0ebc
000001b0: 0005 9a3d 3724 26be 562f a23d 1525 063e
000001c0: c2b7 053e b4d4 553d 41e2 9b3d d0a8 5abd
000001d0: e6fe 2c3d b8ba d1bc 79fb 69be 53de a3bd
000001e0: 6083 1abe d0d6 5bbe 1432 033e 435e 9abd
000001f0: 2fef e1bd d669 8b3e c529 37be 0fa9 4bbe
00000200: dd64 83bd 02ed a93d bc25 09bd 98c6 7a3e
00000210: 3f9d 70bd 309a 1b3e a033 f73d 6c78 f63d
00000220: 6ef6 1bbe 7e45 2abe e6e2 25be ef44 13be
00000230: 99b2 48be 8868 7fbd 6bb0 42bc 5ab9 d5bd
00000240: f594 9fbe 274b e6be 7c10 04bf a351 9fbe
00000250: 30e2 c9be ad22 56be 227a e53e 6fc7 b13e
00000260: 0aaf 7c3e 490c a2be 1684 ffbe 728f 82be
00000270: c410 32bd 49f9 9a3e 231a 9c3e a443 0f3f
00000280: 1150 e93e 745a 053f
-0.038282793 0.09353949 0.1480858 -0.06677772 0.22464326 -0.10018085 -0.092028186 0.05005031
-0.16862719 -0.04507676 0.20293686 -0.38780925 0.13196404 0.31429103 -0.037439767 -0.14175226
0.048624635 0.076177254 0.2811985 0.07826809 -0.20199452 0.29953876 0.15841241 -0.10826207
-0.066733345 -0.22820446 -0.024027292 -0.19432352 0.09259228 0.08209183 0.1924663 0.20153885
-0.0018835774 0.13068932 -0.14257404 -0.20533425 0.26252478 0.28640792 0.043297958 0.25602853
0.35835445 0.44232494 -0.30565912 -0.5573627 -0.51295245 0.25772822 0.45265064 0.4806193
0.25683534 -0.11738419 0.17801595 -0.70538694 -0.72191435 -0.20681208 0.17340364 -0.053057604
-0.019529616 0.12420775 -0.14271998 0.049868535 -0.013883447 0.02114969 0.16070074 -0.22227508
-0.06704329 0.22692728 -0.23966269 -0.28553975 0.45399988 -0.27651477 0.19828475 0.3785857
-0.2705145 -0.283285 0.19844362 -0.123478495 0.008329635 0.34034485 -0.098195784 0.14881456
0.1262149 0.10293869 0.040528115 -0.056302335 0.06648242 -0.118505314 -0.11357914 0.063005105
0.1449933 0.17019041 0.0040084296 0.19027285 -0.26959783 -0.05262053 0.02114923 0.253008
-0.35407943 0.073640674 0.3679162 -0.018177954 0.027113443 -0.058931462 -0.18591921 0.23849565
0.37678802 -0.3248897 0.199796 -0.008679886 0.07520485 -0.16224752 0.07919185 0.13100083
0.1305838 0.052204803 0.07611514 -0.05338365 0.042235278 -0.02560173 -0.22849835 -0.08001389
-0.15089178 -0.21468663 0.12812072 -0.0753751 -0.11031949 0.27229184 -0.17887028 -0.1988871
-0.064157225 0.08297159 -0.033483252 0.2448982 -0.05874371 0.15195537 0.120703936 0.120346874
-0.15230724 -0.16628072 -0.16199836 -0.14381765 -0.1959938 -0.06235555 -0.011882882 -0.10435744
-0.31168333 -0.44979212 -0.51587653 -0.3111697 -0.3943038 -0.20911665 0.44819742 0.34722468
0.24676147 -0.31649998 -0.4990546 -0.25500065 -0.04347302 0.30268314 0.3048869 0.55962586
0.45568898 0.52091146

conv2.bias f4 [6]
00000000: d6c3 42bd 7ec5 ccbc 28b6 f9bd 55e5 2dbd
00000010: b6d4 9b3c 89e0 573e
-0.047550045 -0.024996515 -0.12192947 -0.042455036 0.019022327 0.21081747

fc1.weight f4 [120, 726]
00000000: 65c2 ef3c 9cc8 0cbd d6cc 85bc c5d1 9fbc
00000010: b473 90bc 8b5e 1f3c 9d6c 0bbb 516d ecbc
00000020: 1b13 833c bb64 cbbc 7f72 063d 4ba7 0d3d
00000030: 42ca b4bc 2f27 d9bc 0af9 073b d6d3 763c
00000040: 0672 5abc 93f6 24bc ca61 2d3d 7b76 d23c
00000050: 9c02 9e3c 244c 0bbd eef8 b63c d669 b63c
00000060: 2023 be3c 902e 87bb d2db c73c a65e 59bd
00000070: 9d96 3ebd f3fa 0cbd a4a8 0b3c 7812 163d
00000080: 0f9c 31bc ab4c a53b 4b81 6bbb b969 0b3c
00000090: 2ff3 0e3b e849 e0bc fc7d f53c 65b6 f63c
000000a0: ea18 673c 3b08 f53c adec 7a3b ce4f d53c
000000b0: 4c4b e0bc 1085 1bbb 5f42 1cbd b4d1 03bd
000000c0: dc3a d1bb c310 823d f31f 4f3c 62f5 e83b
000000d0: 0b87 273d a704 c63c 2fcd 133c a657 c63c
000000e0: bac7 c33c fb37 c7bc afc9 e2bc 71a5 f23c
000000f0: 4ee8 c13c 7894 093d 201c c0bc 8965 503b
00000100: 2283 26ba 0e47 8f3b 9868 8a3c a116 4c3c
00000110: 1c13 ae3c 5462 293c f98e ebbb 6e19 c73c
00000120: 689d df3b 12ee 43bc 5641 083b a73d a23c
00000130: 1170 803c 59c8 c5bb 1f14 d13c 2e77 bf3c
00000140: ca67 90bb e3f3 2abd 3d0c 183b 9ed4 06bd
00000150: 6d64 d33c 9cb7 1d3c 7e6e e8bc c88c 373c
00000160: c68d b13b 7fee 863c bda2 5c3c c26b c13c
00000170: b44b 15bd 191e 023c d664 d0bc a697 1a3d
00000180: 8264 213d e956 cdba 0cfc d9bc 6529 40bc
00000190: d8c1 a5bc a91f a83a 19a3 18bd dfac 1dbd
000001a0: ec28 d83b 2947 eebc 6766 173d 7c15 80bc
000001b0: b881 1f3c d9bd 00bc f25e 093d d56f c0bb
000001c0: 18d6 58bc 5263 e9bc 48af 83bc 4d1b 97bc
000001d0: f8d8 233d fa66 443d aa64 e7bb 3a1f 23bd
000001e0: ae04 cebc f0b5 9c3c b4b6 203c a25d c83b
000001f0: 7738 07bc 10bb 8f3c 3309 61bc 1e97 88bc
00000200: 77e2 893c 6a57 633c ad3a f5bc 227a 96bc
00000210: 76d1 b5bc cc5f 84b7 aff2 53bc 351b 943c
00000220: 9a32 a03c 3fbc 73bc b74c 1a3c 27ce ca3c
00000230: 0318 0c3c 37eb 10bd 771d 1d3c 49c2 453b
00000240: ce28 49bc f30a 4f3c ddec 283c a3da b9bd
00000250: 50b7 bbbd d09d 8dbd 8f72 acbc e350 4ebb
00000260: 3d92 1b3d 33b7 39ba 220c debb c5c1 533d
00000270: 6459 1d3d 5c89 263d 1e88 b53c d2b6 ec3c
00000280: 2b82 4d3d a991 153d 4540 a83c 70ab ba3d
00000290: 4f20 913d 4d44 203d a908 c93c d521 14bd
000002a0: 3e20 c8ba 62f1 3abb 1a68 073d 4615 b03d
000002b0: 1397 053d 6d48 993d 4fe7 353d 919e ae3c
000002c0: 9317 d0bc 667c 213d 7e91 553d 18e4 213d
000002d0: 4a47 493d d0df 1f3d 8116 ea3a 9bce 813b
000002e0: 21ff c0bc 8044 24bd 7f71 bdbb 3363 cd3b
000002f0: 175b 013c 3bfe 833c 690c 753c d03e 063d
00000300: de9f 823c 299a 99bc 73b3 78bd 6960 1ebd
00000310: 8be0 26bd f5a1 4ebd 4116 9abb 8c66 11bc
00000320: 89f9 4b3c 3cd2 11bd 5d18 003c ce04 103d
00000330: 9c1f 9a3c f966 b9bc 86ef 84bc 0b15 4fbd
00000340: 6d19 f0bc 8b33 6b3d 1236 203d 8928 6d3d
00000350: 9595 80bc 6d3d 5dbd ef07 14bc 0e1d c1bc
00000360: e878 8cbc 4ed6 95bc 7d49 eabc 5afd 32bd
00000370: a05f 6d3c ff9f 5a3b 49c4 653d fd42 ff3c
00000380: da04 71bd 0b9d 5abb 71be cb3c 7103 07bc
00000390: 0eb1 9f3c 2557 1abc fc32 143b 5520 313b
000003a0: 73c2 d53c f7cf c9bc d7da 393d cfff 173d
000003b0: 6c8b 103d 776d 8f3d e46a 3a3d b17f 25bc
000003c0: 0b20 4b3c 5935 e73b 7239 ed3c a019 673c
000003d0: 0273 9bbc 539e 373c f423 2c3c 32d9 023d
000003e0: 0861 29bd f370 b9bc 1c11 2fbd f2a6 03bb
000003f0: 2d87 f1bc 086b e4bc 91a4 cbbc fb40 8abc
0.0292675 -0.034371004 -0.016333025 -0.019509206 -0.017633297 0.009727131 -0.0021274455 -0.02886072
0.016000321 -0.024828305 0.032824036 0.03458337 -0.0220691 -0.026507942 0.0020747804 0.015065154
-0.013332849 -0.0100685535 0.042329587 0.025691262 0.019288354 -0.03400816 0.022335496 0.022267263
0.023210108 -0.0041254237 0.02439681 -0.05306878 -0.046530355 -0.03441901 0.008524094 0.036638707
-0.01084043 0.00504454 -0.003593522 0.008509093 0.002181243 -0.027378991 0.0299673 0.03011627
0.014105061 0.029911151 0.0038288042 0.02603903 -0.027379654 -0.0023730434 -0.038149234 -0.03218241
-0.0063851904 0.06350853 0.012641895 0.00710933 0.04090027 0.02417214 0.009021088 0.024211716
0.023898948 -0.024318686 -0.02768406 0.029619904 0.023670342 0.033588856 -0.023450911 0.00317988
-0.0006351938 0.004372484 0.016895577 0.012456567 0.021249346 0.010338385 -0.0071886745 0.024304118
0.006824184 -0.011958616 0.0020790896 0.019804789 0.015678437 -0.006035846 0.02552229 0.023372259
-0.004406904 -0.041736495 0.0023200654 -0.03291761 0.025804723 0.009626295 -0.028373 0.011202998
0.005418512 0.016471146 0.013466534 0.023610953 -0.03644915 0.007941746 -0.025438707 0.03774228
0.039402492 -0.001566616 -0.026609443 -0.011728619 -0.020234033 0.0012826818 -0.037264917 -0.03849494
0.006596675 -0.029086666 0.036962893 -0.015635245 0.009735517 -0.007857763 0.033537813 -0.0058727064
-0.013234638 -0.028489742 -0.016074792 -0.018445635 0.04000184 0.04794977 -0.0070615606 -0.0398247
-0.025148716 0.019129723 0.009809185 0.0061146775 -0.008253208 0.017545253 -0.013735103 -0.01667362
0.01683162 0.013875822 -0.029935205 -0.018368784 -0.022194605 -1.5780235e-05 -0.012936278 0.01807938
0.019555379 -0.014876424 0.009417704 0.024756504 0.008550647 -0.03538057 0.0095895445 0.0030175617
-0.012277795 0.012636888 0.010310379 -0.09074905 -0.091658235 -0.06914866 -0.02105072 -0.0031481318
0.03798126 -0.0007084489 -0.0067763487 0.051698465 0.038415328 0.04065834 0.022159632 0.02889577
0.050172966 0.036515865 0.020538459 0.0911473 0.070862405 0.039127637 0.024540262 -0.036165077
-0.0015268398 -0.0028525223 0.033058263 0.085978076 0.03261478 0.07484517 0.044410046 0.021315845
-0.025401866 0.039425276 0.052140705 0.039524168 0.049140252 0.039031804 0.001785949 0.003961397
-0.023559155 -0.04010439 -0.005781352 0.006267929 0.007895253 0.016112437 0.014956572 0.032774746
0.015945371 -0.018750267 -0.06071801 -0.038666163 -0.040741485 -0.050447423 -0.00470236 -0.008874547
0.012449631 -0.035600886 0.007818309 0.035160832 0.0188139 -0.022632109 -0.016227495 -0.050557178
-0.029308999 0.057422202 0.039114065 0.057899985 -0.015696326 -0.05401366 -0.009035095 -0.023573425
-0.017147496 -0.018290665 -0.028599495 -0.043698646 0.014488131 0.0033359525 0.056095395 0.031159872
-0.058842517 -0.0033357765 0.024871083 -0.008240567 0.019493606 -0.009420191 0.0022613397 0.0027027328
0.026093697 -0.024635298 0.045374718 0.037109192 0.035289213 0.07003301 0.045512095 -0.010101245
0.012397776 0.00705592 0.028958056 0.014105231 -0.018975738 0.011207181 0.010506619 0.031945415
-0.0413523 -0.022636866 -0.042740926 -0.002008852 -0.029483402 -0.027883068 -0.024858745 -0.016876688

fc1.bias f4 [120]
00000000: c114 ea3c 99d5 ec3a 801f 82bc 6f45 063d
00000010: 1a0a 453b 51bd 7fbc e6f6 9bbc b43f 49bc
00000020: a170 11bb 773e 7f3c 8a22 433b c1a8 603b
00000030: e332 d13c f920 60bb 9fea 97bc 1c6a 813c
00000040: 6ffa 55b9 b688 18bd f496 b73c ef33 22bc
00000050: 1d46 d03c 196c a2bc cf9e a9bc a22a e83c
00000060: 808a 20bd fcfe 94bb 73c9 ebbc a180 223d
00000070: 9dbb f33b 19e1 d4bc 9baf 04bd 2938 fd3a
00000080: 35b0 e53c b797 35bc 69a9 823c 35e7 a9bc
00000090: 6114 113c 222d d13b e182 403c d15b 22bc
000000a0: bc51 313c 9533 233d 4d91 bebc 78bb 0cba
000000b0: 3e4d f6bc 89d9 203d d7f9 dd3c 8d11 8cbc
000000c0: 98eb 85bc 79bb adbb 0c34 00bd 76c9 243d
000000d0: c862 013d a9e6 d8bc 52bb f4bc a130 ae3c
000000e0: a1b7 013b 8c56 7fbc 9fb5 1b3b 666a 5e3c
000000f0: dad1 3139 83a7 fe3c 1f12 a9bb 9d5a 8e3b
00000100: 7d17 74ba d9ce e2bb 21cb 033d 200c 8ebc
00000110: 73c1 d13c 2234 90b9 bc68 683c d324 b3b9
00000120: 78fa f83c 6ca8 21bb 9df3 b3bc d096 8f3c
00000130: 13e2 e63c 35e3 613c 3d4c c73b 725b f0bc
00000140: 09c2 253c edc0 ed3c 6f84 093c 836c adbb
00000150: d473 b5bb a22b db3b 4be1 0ebd 2639 a5bc
00000160: 53d8 1a3d 5e80 e73c 3d33 e7bc 8dad 1abd
00000170: dccd 6fbc 3d8d 143d 6cd3 c0bc b334 ca3c
00000180: 519b abbc fbfa 253c 7872 3e3d d7ef 1d3d
00000190: 3e51 fd3c b367 6fbc 1c4e 15bb e14d 80bc
000001a0: db59 cbbb 14bd 9b3b 4e78 a4bc 5bf7 d5bc
000001b0: c030 b938 ab17 ff3b fd57 893c d1d2 7ebc
000001c0: 5fde 173c 4158 5dbc ae03 05bc 425e 2fbc
000001d0: 4a66 adbb 06bb b43b 05f8 68bc 7bbf f73c
0.02857435 0.0018069028 -0.015884161 0.03278106 0.0030065835 -0.015609101 -0.019038629 -0.012283254
-0.0022192376 0.015578858 0.0029775226 0.0034280273 0.02553696 -0.003419934 -0.018544493 0.015797667
-0.00020406557 -0.037239753 0.022410847 -0.009900077 0.025424058 -0.019826936 -0.020705609 0.028340641
-0.039194584 -0.004546998 -0.028782582 0.03967345 0.0074381367 -0.025986241 -0.032394033 0.0019319105
0.028038124 -0.011083535 0.015949922 -0.02074013 0.008854956 0.006383554 0.011749954 -0.009909586
0.01082271 0.039844114 -0.023262644 -0.0005368511 -0.030066129 0.039269958 0.027096672 -0.017098213
-0.016347691 -0.0053018895 -0.031299636 0.04023119 0.031588346 -0.026477175 -0.029874478 0.021263422
0.001979329 -0.015584599 0.0023759378 0.013575172 0.00016958211 0.031085735 -0.005159631 0.004344298
-0.00093113614 -0.006921631 0.03217614 -0.017339766 0.02560494 -0.00027504662 0.014185127 -0.00034168977
0.03039287 -0.0024667038 -0.02196675 0.017527968 0.028183972 0.0137870805 0.0060820864 -0.02934048
0.010117062 0.029022658 0.008393391 -0.0052924766 -0.0055374894 0.006688551 -0.034882825 -0.020168852
0.03780396 0.028259452 -0.028222675 -0.037763167 -0.014636483 0.036267508 -0.023538314 0.024683332
-0.020948084 0.010130639 0.046495885 0.038558807 0.030922528 -0.014612126 -0.0022782153 -0.015662136
-0.00620578 0.0047527645 -0.020076897 -0.026118925 8.830568e-05 0.007784804 0.016765589 -0.015553192
0.009269326 -0.013509811 -0.008118553 -0.010703625 -0.005291735 0.005515459 -0.014219289 0.030242672

fc2.weight f4 [84, 120]
00000000: 7cd7 0c3e 8c52 9dba d495 6abd 63ab 183d
00000010: 885f 7abb 58bd 8c3c e14b ea3c 0720 26bd
00000020: 7e19 463d ea03 c13c eddf dcbc 49fc 483d
00000030: 1c50 9dbd 87a9 913d 5450 873d bdb9 2fbd
00000040: 6106 28bd 979e 3f3c 69c9 563d dc89 933c
00000050: a4da b63d dbb8 a83d edcc 0abd 992a 693d
00000060: 5aab 113d ed1e bdbd 1576 af3d c471 ea3d
00000070: 095a 0ebb 2446 f3bd 3bcb 78bd f78a 75bd
00000080: 3f98 cf3c 5087 99bd 0d4e 92bd 1b44 b33d
00000090: fd90 0b3d 8c87 09bc 63af c6bc 0b6b 953d
000000a0: 0ea8 61ba 548c 93bd 45a9 0abd 98d0 8fbd
000000b0: 78f3 7fbd 06aa c3bd c032 0e3c 5f8c 5abd
000000c0: 328c 5fbd 7d57 97bd 7eaf fbbb 58ad 84b9
000000d0: 0a5f 22bb 7107 693d 912a 28bd 735f 13bd
000000e0: 84ce 2bbd d640 203d f7f9 6f3d 3853 80bd
000000f0: 4428 e03c 5493 4cbd fa82 343d f235 81bd
00000100: f1a9 c73c d445 553d d0f1 c4bc b46b 8d3d
00000110: b18c 65bb e8a8 383b faf9 65bc 6ddf b73c
00000120: f167 8cbd 3353 aa3d 21ed 93bb fa19 aa3d
00000130: efc4 cfbd 0599 57bd 0264 9cbd bb15 933d
00000140: 7a63 0fbd 9ebb 9dbd 3aea 4f3d c515 4fbd
00000150: 93f7 cc3b a1d6 8fbd c355 f2bc d31c 8d3d
00000160: 350b e63d 9e44 c13d 0742 243d 0e2f 05bd
00000170: 80a9 84bd 982a 393d b7a1 3abc c86f b3bd
00000180: 234a 353d e65b f73d 7a0e 113e 4e9c c13d
00000190: f01f 3fbd 55c0 763d 848b bcbd 5444 93bd
000001a0: 1c8f 883d 2ce8 48bd 85bd b83d 3f90 0f3c
000001b0: ffb4 b5bd df82 943d bdf6 71bd 64c2 6b3d
000001c0: af19 61bd afc8 bd3c 1a73 c6bc c526 003e
000001d0: 10c3 8a3d 2a4e 26bd 9fd3 a43c 5bfa 9c3b
000001e0: 2984 433d ad43 a73c cca0 87bd b674 bf3d
000001f0: e259 4f3c 7280 e93c ec24 d23d 9e83 9a3d
00000200: 2a4b 053e bc05 8a3d 2d4f af3d f455 3b3d
00000210: f570 de3c 97d7 c9bc 88c7 853c 39d9 dfbd
00000220: 2310 15bd 7f23 a8bd bf15 0cbd aa5e 8cbd
00000230: fcc2 6fbc 5a8b 91bd 6570 9dbb f108 2e3d
00000240: 261e 9b3d ec5f 8a3d 71e2 833d 0879 4abd
00000250: caf5 c8bd 0bbf 853b 85d6 bbbc 45b9 02bd
00000260: be1a 993d 1826 8dbd 66a8 99bd 5b36 8e3c
00000270: 5a09 3f3d 4e07 c83d 47cc 9dbc eaad 663c
00000280: 9c71 ff3c 2022 a4ba 3e8b a6bd a845 913d
00000290: b8fa 413d 85bd 85bc 7513 563d 297f ef3c
000002a0: 51ea 25bd 5db2 393c 5581 7fba 9cc6 66bd
000002b0: 2916 babd c069 ccbc 7873 b2bc 972e 833d
000002c0: 2d0c d1bc ddcd 02bd 37d1 9cbd 375f b83d
000002d0: 619b eabc bb0f a6bc 4ca4 793c 643f 733d
000002e0: 3d3d 7bbd ecc6 763d a330 b03c 3ad5 22bd
000002f0: d448 47bd 5d4b 66bd dece 043c cf55 853d
00000300: 432e 973b a7aa 7abb f51e 713d 6f05 743a
00000310: e3ea 253c 5ee0 c0bc 11ce 80bd 775a 683d
00000320: 532f 93bd bcbe aa3c b1d7 bf39 bc5b e63d
00000330: 5f65 ab3d 3f2b ca3d f64c 0b3d a985 aa3d
00000340: ddfe 9fbc 7cea 1ebd 8be4 363d d918 f3bc
00000350: a1d4 a1bd 2afd ab3d e4de a93d 573f 2a3d
00000360: e34a 24bd 965e 013d 3dc0 9d3c adbc a73c
00000370: 94a1 d43c 8ca5 5cbd f1d6 7cbc 714b 913d
00000380: 7ec9 3c3c 1f06 e8bc 05fc 553d 7abd 63bd
00000390: d849 e1bc bdfd 75bd 9f6e 0e3d 8436 e5bc
000003a0: dea7 3a3c 1091 433c af77 32bc a60d 743d
000003b0: 7b2e cebc 979b 163d 2a33 f73c f88c 99bd
000003c0: 99b7 4fbd f8c6 4bb9 e062 983d 9d15 0ebd
000003d0: 0fd5 88bd a550 a53d 1edf a4bc aa91 b03d
000003e0: 2ea1 023e b1bd 34bd 03b1 bbbd 55c6 d83c
000003f0: 8882 9a3d a000 003c 5972 1bbd 76d4 04bd
0.13754076 -0.001200275 -0.057271793 0.037272822 -0.0038203914 0.01718013 0.028600635 -0.040557887
0.048364155 0.023561437 -0.026962245 0.049068723 -0.07681295 0.07112413 0.06607118 -0.042901743
-0.04102171 0.011695526 0.052438173 0.018010072 0.08928421 0.082383834 -0.03388684 0.05692539
0.035563804 -0.09234414 0.08567444 0.1144748 -0.0021721146 -0.11878613 -0.06074069 -0.05994698
0.025341151 -0.07496512 -0.07143793 0.087532245 0.03407382 -0.008394133 -0.024253553 0.072958075
-0.0008608111 -0.072045 -0.033852834 -0.07022208 -0.06248805 -0.09553914 0.008679092 -0.053356525
-0.05457706 -0.07389734 -0.0076808324 -0.00025306153 -0.0024775886 0.056891862 -0.04105622 -0.0359797
-0.041944996 0.039124332 0.058587994 -0.06265873 0.02736295 -0.04994519 0.04407022 -0.063091174
0.024373027 0.052068546 -0.024041086 0.06905308 -0.0035026486 0.0028176848 -0.01403665 0.022445405
-0.06855763 0.0831665 -0.004514352 0.08305736 -0.10144984 -0.052636165 -0.076362625 0.07181879
-0.035006978 -0.07701801 0.050760485 -0.05055787 0.006255099 -0.07023359 -0.02958191 0.068902634
0.11232606 0.09436916 0.04010203 -0.032515578 -0.06477642 0.045206636 -0.011391095 -0.08761555
0.044260155 0.12078075 0.14165679 0.09453641 -0.046661317 0.060242016 -0.09206298 -0.07190767
0.06667921 -0.04904954 0.09020523 0.008762418 -0.08872413 0.07251524 -0.0590732 0.057558432
-0.054956134 0.023166982 -0.024224807 0.1251479 0.067754865 -0.040601887 0.02012044 0.004790587
0.04773346 0.020418013 -0.066224664 0.09348433 0.012655707 0.02850363 0.102609485 0.07544635
0.13016954 0.06739375 0.085600235 0.04573627 0.027153471 -0.024638934 0.016330495 -0.10930104
-0.036392342 -0.08209895 -0.034200426 -0.06853993 -0.01463389 -0.07106657 -0.0048046582 0.042488996
0.0757411 0.06756577 0.06439675 -0.04943183 -0.098125055 0.004081612 -0.02292944 -0.031914968
0.07475804 -0.068920314 -0.075028226 0.017359903 0.046639778 0.09767018 -0.019262446 0.01407955
0.031182103 -0.0012522377 -0.08132027 0.07093364 0.047358245 -0.016325722 0.05226465 0.02923544
-0.040506665 0.011334029 -0.000974675 -0.056341752 -0.09086258 -0.02495277 -0.021783575 0.06405371
-0.025518501 -0.031934608 -0.07657092 0.09002536 -0.028638544 -0.020271173 0.015236925 0.059386626
-0.0613377 0.0602483 0.021507567 -0.03975413 -0.04865344 -0.056224216 0.008105962 0.06510507
0.004613669 -0.003824869 0.058867414 0.0009308671 0.010126802 -0.023544487 -0.06289304 0.0567269
-0.07186761 0.020842902 0.00036591062 0.11247966 0.083689444 0.0987153 0.034008943 0.08326275
-0.019530708 -0.03879784 0.04465155 -0.029674934 -0.07901884 0.083978966 0.08294466 0.04156431
-0.04011048 0.031584345 0.019256705 0.02047571 0.025955953 -0.053868815 -0.015432105 0.070944674
0.011522649 -0.028323231 0.052242298 -0.05560062 -0.027501032 -0.060056437 0.034773465 -0.027980097
0.011392562 0.011936441 -0.010892793 0.05958333 -0.025168648 0.036769476 0.030175764 -0.07497591
-0.0507122 -0.0001943371 0.07440734 -0.03468858 -0.06681263 0.08072022 -0.020125922 0.08621533
0.12756798 -0.044126216 -0.09164622 0.02646176 0.07544428 0.007812649 -0.037950847 -0.03242918

fc2.bias f4 [84]
00000000: 5612 76bd 8141 81bd d5a9 0fbc 4456 023c
00000010: 6b43 043c 2720 0ebd 6668 393d 7850 073d
00000020: 3658 26bd e75d 2c3c 9066 f93d abde b33d
00000030: aca2 7dbd 6f23 bebb b874 57bd fe2d 683d
00000040: 6134 3bbd bb11 95bc 7bb3 0bbd 2c9f 42bd
00000050: 5c2a 3e3d c806 ffba 559b 9abd cab5 40bd
00000060: 8f97 5fbc 6165 ccbb f9f8 343d e6b9 3ebd
00000070: 82fa e73d d0f2 453a a467 a83c 1611 f23c
00000080: 5bb5 0b3d 7ce3 ba3d 30fa adbd b5b0 50bd
00000090: 361c 1d3d 94a3 3b3c 62d8 43bd a3b1 c73a
000000a0: 9a90 48bd 674d 91bd bc9d 9dbd 81a8 573d
000000b0: 6f3d 7f3c 14c7 b43d 6b78 323d 9994 32bc
000000c0: b7d5 ffbc 30bd 92bd 54af c1bc 74af 843d
000000d0: eb46 6d3d b745 d13d 1f3b dd3c 73d5 a43d
000000e0: 060a e83c bba8 b03d fb51 7abc 3dbe 473b
000000f0: dcc9 c7bd 0428 0bbd 2b04 0dbc cc09 30bd
00000100: ea89 c5bb 5ebf 84bd 066a f93b d479 313d
00000110: 3548 5f3d c272 b239 2a27 8b3d 6a0e 37bd
00000120: a25b 0dbc 0441 4c3d 323e 893d 1bf7 36bc
00000130: 1122 8c3c a0e9 8a3d 3a99 c13d bea3 d13c
00000140: f450 dfbc 3db0 8d3d 0dd4 d0bb 280e c33c
-0.06007608 -0.06311322 -0.008768518 0.007955138 0.008072714 -0.03469863 0.045265578 0.033035725
-0.04061147 0.010520435 0.12177765 0.08782705 -0.061922714 -0.005802564 -0.052601546 0.056684487
-0.04570425 -0.018196931 -0.034106713 -0.04751508 0.046427116 -0.0019456977 -0.075491585 -0.047048368
-0.013646974 -0.0062376712 0.04418275 -0.046564005 0.113270774 0.00075511355 0.020557232 0.029549163
0.0341085 0.091254205 -0.08494985 -0.05094977 0.038356982 0.011452574 -0.04781378 0.0015235435
-0.048966028 -0.070948415 -0.07696101 0.052650932 0.015578612 0.08827034 0.04357187 -0.010899686
-0.031229837 -0.07164991 -0.023643173 0.064787775 0.05792896 0.10218375 0.02700573 0.08048525
0.028325092 0.08625933 -0.015278335 0.003047838 -0.097552985 -0.03397371 -0.008606951 -0.042978093
-0.0060284035 -0.06481813 0.007611516 0.043329075 0.05451222 0.00034036307 0.06794579 -0.04469148
-0.008627804 0.04986669 0.06701316 -0.011167313 0.017106088 0.06782842 0.09453054 0.025590774
-0.027260281 0.069183804 -0.0063729347 0.023810461

fc3.weight f4 [10, 84]
00000000: eebf acbd 5ea6 903c 25a8 04be 017a e63d
00000010: 0532 f7bd 66bf 80bd c8fb 89bd ab2a 573e
00000020: 016e f4bd 53ab 333e d87d 79ba 364a 45bd
00000030: 52f8 e73c 4c94 05bd 6e53 2a3b 1aab 093e
00000040: 1d39 a03d d15a c13d 056f 2c3d ba22 6b3e
00000050: e182 3fbe 8916 f5bc 6c4e 6b3e fbdb 10be
00000060: 71d1 1fbd b57b 9f3e f039 4a3d 0bc8 1dbd
00000070: e2d1 86be f332 a13d d2d6 b3bd b8d5 1ebe
00000080: 8bc9 b1be c9e8 81be 8273 123e cf54 13bc
00000090: 3567 f5bc 1a38 8a3e bc28 f9bc 42ab b93d
000000a0: fc21 493c 8cfc afbc 0013 95bc 1bab ce3d
000000b0: 929b 0bbe 1ee5 213d 14bd ef3d b505 32bd
000000c0: 7de0 febd fbfe e03c c81f 01bc db11 13be
000000d0: 4c3d 113e 4cda 09be 62f5 ae3d 568d a7bd
000000e0: 1ea5 323e 168e 233e e029 443c 1a16 78bd
000000f0: c3da b23d 361e 77be 9a53 82bc 2d17 533e
00000100: e5b2 48be a71c 9f3d 85ae 23bd e8ec 86bb
00000110: 3907 12be 9de0 fe3d f50f 9ebc cf9c d53d
00000120: 055c 6dbe a81b 22bc 0cde 98bd d6dd 013d
00000130: df2c 0a3e 93a0 0ebe 3b13 973d cdd1 5bbd
00000140: 045d 44bd c653 323e 06b0 c6ba 2b43 68be
00000150: 61aa 233e fe64 b53d 0bab 933d 9b40 9fbd
00000160: e110 173c 5962 f93c fddf 41bd 2bcb 6ebe
00000170: 4c9c a8bc 566a c63d e1ae 803e 426f 5f3c
00000180: 0950 b63c ce29 45bd 8c77 9c3d 7d42 253e
00000190: bae5 1fbe d3b2 873d b645 c6bd 9184 8dbc
000001a0: 7d87 363d 6b9b c83e bc28 3cbe 3b05 553e
000001b0: 4f29 18bd 7b81 42be 3476 6f3e 4627 e53c
000001c0: a103 4d3e f58e 5c3e 0e30 27be 6b35 ea3d
000001d0: fdff febd 6713 bb3d 9e54 0ebe 5993 613d
000001e0: 88f8 12be b829 3dbd c51c 34bd e6ac a6bd
000001f0: bbc8 403e 53bd 0abe c72a f33d f959 ec3d
00000200: 5ddb b23c b9ee 9d3c d194 ecbc 529d 49bd
00000210: 27d3 8dbd 8928 babd a012 65bc 3b29 a2bd
00000220: d7f5 543e b2f3 2e3e eee3 42be 642e 30be
00000230: bde5 b13c 3cda 5abe e705 60bd bae6 a8bd
00000240: e17f 9e3d 0839 113e 9931 83be 2efe d2bb
00000250: 0535 573c 053f 88bd 2a29 c93d 0e07 573e
00000260: eead 55be 328b 0ebd f0e8 4d3d c2fd 003d
00000270: 7e83 b3bd e490 433e c9c3 d53d 6b3b 21bd
00000280: b6a5 423e d2ed 263d 408a 40be 5d66 acbd
00000290: bf56 0b3e 7151 83bc e3d8 45be 9c63 473e
000002a0: 4960 c6bd 03b9 613c 7dfd fa3d c590 1c3e
000002b0: c97c 8c3e 8ad4 84be 5f8a 693c 2076 33bd
000002c0: 2f00 1a3e 008f e63d 4e2d 07be 0d5f 383e
000002d0: fd70 d03d 7fe6 8e3d dc5c a63d 7099 dfbc
000002e0: 8fc0 29bd 9139 cabc 3ee9 f13d 8311 5bbc
000002f0: 981e 293e a4c6 0c3d 9765 c0bd 561a 2a3d
00000300: cfd5 db3d 45fe 6e3d 5fdc 1fbe 8a8b 80bd
00000310: c2ac a0bc f6c5 1d3e 52c4 e0bd 97b5 2cbe
00000320: f1b9 8bbe 472d d53d 6755 d73d ca0b 8fbb
00000330: 8125 7e3d 064e aa3d e22d 13be 3a1c 853d
00000340: b60d f03c e52a 7abd 2ed3 b1ba febd 1e3e
00000350: 588d 563d d912 65bd cb93 25bd 64c8 cf3d
00000360: 3d11 25be 1703 3e3c fd1e 73bd 03c4 0dbe
00000370: a837 103e 18b8 e33d 612b a93d 53f5 3f3d
00000380: bf3f bfbd 9922 21bd 6047 6abd c3e9 07bd
00000390: 2c3f c63d 29f5 febd 0a9c 9c3e 9232 16be
000003a0: 6fa6 2e3e 10d8 8abd 766f ce3d c1d2 4a3e
000003b0: 4ccf a03d 9309 aabd 7d0d 37be c01e 1c3e
000003c0: 5af6 86be b4af 67bb 4de5 2d3c ef83 69bd
000003d0: 542b d43d 15db 153d b548 2b3e 3733 56bd
000003e0: 4dad b03d 8daf 853d 4573 38be f248 833d
000003f0: db2d f3bd 3157 833c 052a 723d 6691 21bd
-0.08435045 0.017657455 -0.12954767 0.11253739 -0.12070087 -0.06286506 -0.067374766 0.2101237
-0.11935044 0.17545824 -0.00095173484 -0.048166476 0.02831665 -0.03261213 0.002598967 0.13444176
0.078233935 0.0944115 0.042098064 0.22962466 -0.1870227 -0.029917972 0.22979134 -0.14146416
-0.0390181 0.31149068 0.04937166 -0.038520854 -0.26332003 0.07871046 -0.08781208 -0.15511215
-0.34724078 -0.25372913 0.14301875 -0.008992388 -0.02995644 0.26995927 -0.030414931 0.09065868
0.012276169 -0.021482728 -0.018197536 0.100912295 -0.13633564 0.039525144 0.11705986 -0.043462474
-0.124451615 0.027465334 -0.007881112 -0.1436228 0.14183539 -0.1346218 0.08542897 -0.081812546
0.174458 0.1597217 0.011972874 -0.060567953 0.08733132 -0.24132618 -0.015909005 0.2061431
-0.19599493 0.07769137 -0.039961357 -0.004117597 -0.14260568 0.12445185 -0.019294718 0.104302995
-0.23179634 -0.009894289 -0.07464227 0.0317057 0.1349368 -0.13928442 0.07376715 -0.05366688
-0.04794027 0.1741477 -0.001515866 -0.22681873 0.15982963 0.08857153 0.07210358 -0.077759944
0.009220333 0.030442404 -0.047332752 -0.2331969 -0.02058234 0.09688251 0.25133422 0.013637366
0.02225496 -0.04813557 0.07639989 0.16138645 -0.15614977 0.06625905 -0.09681265 -0.017275127
0.044562805 0.39181075 -0.18374914 0.20802777 -0.03714877 -0.18994705 0.23384935 0.027972829
0.20020916 0.21538909 -0.16326925 0.1143597 -0.1245117 0.0913456 -0.13899466 0.055072162
-0.1435262 -0.046182364 -0.04397275 -0.081384465 0.18826573 -0.13548784 0.118733935 0.115405984
0.021833116 0.01927887 -0.028879555 -0.049222298 -0.0692504 -0.09089763 -0.013981491 -0.0791802
0.20796905 0.1708515 -0.19032261 -0.17205197 0.021715993 -0.21372312 -0.05469313 -0.082471326
0.07739235 0.14181912 -0.25623778 -0.006438992 0.013135199 -0.06652645 0.098223045 0.20998785
-0.2086713 -0.034800716 0.050270975 0.031492002 -0.087653145 0.1909824 0.10437734 -0.039363306
0.19008526 0.040754147 -0.18802738 -0.08417962 0.1360731 -0.016030045 -0.19321017 0.19471592
-0.09686334 0.01377702 0.1225538 0.152896 0.27438954 -0.25943404 0.014254182 -0.043813825
0.15039133 0.11257744 -0.13200876 0.18005009 0.10177801 0.069775574 0.0812318 -0.027294844
-0.041443404 -0.024685653 0.118120655 -0.013370874 0.16515577 0.034369126 -0.09394377 0.041529022
0.1073414 0.05834796 -0.15611409 -0.06276615 -0.019613627 0.15407547 -0.10974945 -0.16866146
-0.272903 0.104090266 0.10514336 -0.004365419 0.062047485 0.08315663 -0.14372972 0.064995244
0.029303413 -0.061076064 -0.0013566965 0.15502164 0.05238089 -0.055926178 -0.04042415 0.10145643
-0.16119857 0.011597416 -0.059355725 -0.13844304 0.14083731 0.111190975 0.08260227 0.04686482
-0.093383305 -0.039339636 -0.057196975 -0.033181917 0.09680018 -0.12449104 0.30587798 -0.14667729
0.17055677 -0.06779492 0.10079853 0.19806959 0.07852039 -0.083026074 -0.17876239 0.15246105
-0.26359826 -0.003535253 0.010613752 -0.057010587 0.10359827 0.036585886 0.16726954 -0.052294936
0.086268045 0.06527624 -0.18012722 0.064103976 -0.118739806 0.016032787 0.059122104 -0.039445303

fc3.bias f4 [10]
00000000: ce2b 67bc 6deb e7ba c9aa cdbd 945c 633d
00000010: a0f1 cc3c ad47 acba da47 a5bd 7c8e aa3d
00000020: 776b 133d 605e 35bc
-0.014109565 -0.0017694064 -0.1004234 0.05550821 0.02501756 -0.001314392 -0.08070345 0.08327958
0.03599116 -0.011069864
